…
},"executionInfo":{"status":"ok","timestamp":1712134292629,"user_tz":-180,"elapsed":151013,"user":{"displayName":"יובל המר","userId":"00531576540532881377"}},"outputId":"1d1768c2-64f0-4187-efa2-a35eba06f910"},"outputs":[{"output_type":"stream","name":"stdout","text":["Training CNN with RMSprop: learning rate: 0.001, epochs: 20\n","Model: \"sequential_2\"\n","_________________________________________________________________\n"," Layer (type)                Output Shape              Param #   \n","=================================================================\n"," conv2d_12 (Conv2D)          (None, 180, 180, 32)      320       \n","                                                                 \n"," batch_normalization_10 (Ba  (None, 180, 180, 32)      128       \n"," tchNormalization)                                               \n","                                                                 \n"," max_pooling2d_12 (MaxPooli  (None, 90, 90, 32)        0         \n"," ng2D)                                                           \n","                                                                 \n"," conv2d_13 (Conv2D)          (None, 90, 90, 64)        18496     \n","                                                                 \n"," max_pooling2d_13 (MaxPooli  (None, 45, 45, 64)        0         \n"," ng2D)                                                           \n","                                                                 \n"," conv2d_14 (Conv2D)          (None, 45, 45, 64)        36928     \n","                                                                 \n"," dropout_8 (Dropout)         (None, 45, 45, 64)        0         \n","                                                                 \n"," batch_normalization_11 (Ba  (None, 45, 45, 64)        256       \n"," tchNormalization)                                               \n","                                                                 \n"," max_pooling2d_14 (MaxPooli  (None, 23, 23, 64)        0         \n"," ng2D)                                                           \n","                                                                 \n"," conv2d_15 (Conv2D)          (None, 23, 23, 64)        36928     \n","                                                                 \n"," batch_normalization_12 (Ba  (None, 23, 23, 64)        256       \n"," tchNormalization)                                               \n","                                                                 \n"," max_pooling2d_15 (MaxPooli  (None, 12, 12, 64)        0         \n"," ng2D)                                                           \n","                                                                 \n"," conv2d_16 (Conv2D)          (None, 12, 12, 128)       73856     \n","                                                                 \n"," dropout_9 (Dropout)         (None, 12, 12, 128)       0         \n","                                                                 \n"," batch_normalization_13 (Ba  (None, 12, 12, 128)       512       \n"," tchNormalization)                                               \n","                                                                 \n"," max_pooling2d_16 (MaxPooli  (None, 6, 6, 128)         0         \n"," ng2D)                                                           \n","                                                                 \n"," conv2d_17 (Conv2D)          (None, 6, 6, 256)         295168    \n","                                                                 \n"," dropout_10 (Dropout)        (None, 6, 6, 256)         0         \n","                                                                 \n"," batch_normalization_14 (Ba  (None, 6, 6, 256)         1024      \n"," tchNormalization)                                               \n","                                                                 \n"," max_pooling2d_17 (MaxPooli  (None, 3, 3, 256)         0         \n"," ng2D)                                                           \n","                                                                 \n"," flatten_2 (Flatten)         (None, 2304)              0         \n","                                                                 \n"," dropout_11 (Dropout)        (None, 2304)              0         \n","                                                                 \n"," dense_2 (Dense)             (None, 1)                 2305      \n","                                                                 \n","=================================================================\n","Total params: 466177 (1.78 MB)\n","Trainable params: 465089 (1.77 MB)\n","Non-trainable params: 1088 (4.25 KB)\n","_________________________________________________________________\n","Epoch 1/20\n","176/176 [==============================] - 13s 49
…
0.0385 - accuracy: 0.9872 - val_loss: 0.1490 - val_accuracy: 0.9428\n","Epoch 14: early stopping\n","37/37 [==============================] - 1s 14ms/step - loss: 0.1234 - accuracy: 0.9590\n"]}],"source":["# Build the model\n","# 96.5% - best prefomance for RMSprop with 0.01 lr\n","epochs = 20\n","lr = 0.001\n","\n","print(f\"Training CNN with RMSprop: learning rate: {lr}, epochs: {epochs}\")\n","CNN = models.Sequential()\n","\n","CNN.add(layers.Conv2D(32, (3, 3), padding = 'same' ,activation='relu', input_shape=(180, 180, 1)))\n","CNN.add(BatchNormalization())\n","CNN.add(layers.MaxPooling2D((2,2) , strides = 2 , padding = 'same'))\n","CNN.add(layers.Conv2D(64 , (3,3) , strides = 1 , padding = 'same' , activation = 'relu'))\n","\n","CNN.add(layers.MaxPooling2D((2,2) , strides = 2 , padding = 'same'))\n","CNN.add(layers.Conv2D(64 , (3,3) , strides = 1 , padding = 'same' , activation = 'relu'))\n","CNN.add(Dropout(0.1))\n","CNN.add(BatchNormalization())\n","\n","CNN.add(layers.MaxPooling2D((2,2) , strides = 2 , padding = 'same'))\n","CNN.add(layers.Conv2D(64 , (3,3) , strides = 1 , padding = 'same' , activation = 'relu'))\n","CNN.add(BatchNormalization())\n","\n","CNN.add(layers.MaxPooling2D((2,2) , strides = 2 , padding = 'same'))\n","CNN.add(layers.Conv2D(128 , (3,3) , strides = 1 , padding = 'same' , activation = 'relu'))\n","CNN.add(Dropout(0.2))\n","CNN.add(BatchNormalization())\n","\n","CNN.add(layers.MaxPooling2D((2,2) , strides = 2 , padding = 'same'))\n","CNN.add(layers.Conv2D(256 , (3,3) , strides = 1 , padding = 'same' , activation = 'relu'))\n","CNN.add(Dropout(0.2))\n","CNN.add(BatchNormalization())\n","\n","CNN.add(layers.MaxPooling2D((2,2) , strides = 2 , padding = 'same'))\n","\n","CNN.add(layers.Flatten())\n","CNN.add(Dropout(0.2))\n","CNN.add(layers.Dense(1, activation = 'sigmoid'))\n","\n","# Compile the model\n","CNN.compile(optimizer = optimizers.SGD(learning_rate=lr,momentum=0.9),loss='binary_crossentropy', metrics=['accuracy'])\n","\n","CNN.summary()\n","\n","# Define early stopping callback\n","early_stopping = EarlyStopping
…
