…
:1000},"executionInfo":{"status":"ok","timestamp":1712051770831,"user_tz":-180,"elapsed":357352,"user":{"displayName":"יובל המר","userId":"00531576540532881377"}},"outputId":"14a5e73a-c70e-404d-dd36-53ee0cc9421f"},"outputs":[{"output_type":"stream","name":"stdout","text":["Training CNN with ADAM: learning rate: 0.001, epochs: 10\n","Model: \"sequential\"\n","_________________________________________________________________\n"," Layer (type)                Output Shape              Param #   \n","=================================================================\n"," conv2d (Conv2D)             (None, 180, 180, 32)      320       \n","                                                                 \n"," batch_normalization (Batch  (None, 180, 180, 32)      128       \n"," Normalization)                                                  \n","                                                                 \n"," max_pooling2d (MaxPooling2  (None, 90, 90, 32)        0         \n"," D)                                                              \n","                                                                 \n"," conv2d_1 (Conv2D)           (None, 90, 90, 64)        18496     \n","                                                                 \n"," max_pooling2d_1 (MaxPoolin  (None, 45, 45, 64)        0         \n"," g2D)                                                            \n","                                                                 \n"," conv2d_2 (Conv2D)           (None, 45, 45, 64)        36928     \n","                                                                 \n"," dropout (Dropout)           (None, 45, 45, 64)        0         \n","                                                                 \n"," batch_normalization_1 (Bat  (None, 45, 45, 64)        256       \n"," chNormalization)                                                \n","                                                                 \n"," max_pooling2d_2 (MaxPoolin  (None, 23, 23, 64)        0         \n"," g2D)                                                            \n","                                                                 \n"," conv2d_3 (Conv2D)           (None, 23, 23, 64)        36928     \n","                                                                 \n"," batch_normalization_2 (Bat  (None, 23, 23, 64)        256       \n"," chNormalization)                                                \n","                                                                 \n"," max_pooling2d_3 (MaxPoolin  (None, 12, 12, 64)        0         \n"," g2D)                                                            \n","                                                                 \n"," conv2d_4 (Conv2D)           (None, 12, 12, 128)       73856     \n","                                                                 \n"," dropout_1 (Dropout)         (None, 12, 12, 128)       0         \n","                                                                 \n"," batch_normalization_3 (Bat  (None, 12, 12, 128)       512       \n"," chNormalization)                                                \n","                                                                 \n"," max_pooling2d_4 (MaxPoolin  (None, 6, 6, 128)         0         \n"," g2D)                                                            \n","                                                                 \n"," conv2d_5 (Conv2D)           (None, 6, 6, 256)         295168    \n","                                                                 \n"," dropout_2 (Dropout)         (None, 6, 6, 256)         0         \n","                                                                 \n"," batch_normalization_4 (Bat  (None, 6, 6, 256)         1024      \n"," chNormalization)                                                \n","                                                                 \n"," max_pooling2d_5 (MaxPoolin  (None, 3, 3, 256)         0         \n"," g2D)                                                            \n","                                                                 \n"," flatten (Flatten)           (None, 2304)              0         \n","                                                                 \n"," dropout_3 (Dropout)         (None, 2304)              0         \n","                                                                 \n"," dense (Dense)               (None, 1)                 2305      \n","                                                                 \n","=================================================================\n","Total params: 466177 (1.78 MB)\n","Trainable params: 465089 (1.77 MB)\n","Non-trainable params: 1088 (4.25 KB)\n","_________________________________________________________________\n","Epoch 1/10\n","176/176 [==============================] - 13s 19
…
":["<Figure size 640x480 with 1 Axes>"],"image/png":"…\n"},"metadata":{}}],"source":["# Build the model\n","test_accs = []\n","test_loss_accs = []\n","epochs = [10,15,20]\n","learning_rates = [0.001, 0.0001, 0.00001]\n","\n","for lr in learning_rates:\n","  for epoch in epochs:\n","        print(f\"Training CNN with ADAM: learning rate: {lr}, epochs: {epoch}\")\n","        CNN = models.Sequential()\n","\n","        CNN.add(layers.Conv2D(32, (3, 3), padding = 'same' ,activation='relu', input_shape=(180, 180, 1)))\n","        CNN.add(BatchNormalization())\n","        CNN.add(layers.MaxPooling2D((2,2) , strides = 2 , padding = 'same'))\n","        CNN.add(layers.Conv2D(64 , (3,3) , strides = 1 , padding = 'same' , activation = 'relu'))\n","\n","        CNN.add(layers.MaxPooling2D((2,2) , strides = 2 , padding = 'same'))\n","        CNN.add(layers.Conv2D(64 , (3,3) , strides = 1 , padding = 'same' , activation = 'relu'))\n","        CNN.add(Dropout(0.1))\n","        CNN.add(BatchNormalization())\n","\n","        CNN.add(layers.MaxPooling2D((2,2) , strides = 2 , padding = 'same'))\n","        CNN.add(layers.Conv2D(64 , (3,3) , strides = 1 , padding = 'same' , activation = 'relu'))\n","        CNN.add(BatchNormalization())\n","\n","        CNN.add(layers.MaxPooling2D((2,2) , strides = 2 , padding = 'same'))\n","        CNN.add(layers.Conv2D(128 , (3,3) , strides = 1 , padding = 'same' , activation = 'relu'))\n","        CNN.add(Dropout(0.2))\n","        CNN.add(BatchNormalization())\n","\n","        CNN.add(layers.MaxPooling2D((2,2) , strides = 2 , padding = 'same'))\n","        CNN.add(layers.Conv2D(256 , (3,3) , strides = 1 , padding = 'same' , activation = 'relu'))\n","        CNN.add(Dropout(0.2))\n","        CNN.add(BatchNormalization())\n","\n","        CNN.add(layers.MaxPooling2D((2,2) , strides = 2 , padding = 'same'))\n","\n","        CNN.add(layers.Flatten())\n","        CNN.add(Dropout(0.2))\n","        CNN.add(layers.Dense(1, activation = 'sigmoid'))\n","\n","        # Compile the model\n","        CNN.compile(optimizer = optimizers.Adam(learning_rate=lr),loss='binary_crossentropy', metrics=['accuracy'])\n","\n","        CNN.summary()\n","\n","        history = CNN.fit(train
…
