…
000},"executionInfo":{"status":"ok","timestamp":1712067923028,"user_tz":-180,"elapsed":163184,"user":{"displayName":"יובל המר","userId":"00531576540532881377"}},"outputId":"2a51aec5-3943-45c6-8d8e-00d9476fc406"},"outputs":[{"output_type":"stream","name":"stdout","text":["Training CNN with SGD: learning rate: 0.001, epochs: 20\n","Model: \"sequential_12\"\n","_________________________________________________________________\n"," Layer (type)                Output Shape              Param #   \n","=================================================================\n"," conv2d_72 (Conv2D)          (None, 180, 180, 32)      320       \n","                                                                 \n"," batch_normalization_60 (Ba  (None, 180, 180, 32)      128       \n"," tchNormalization)                                               \n","                                                                 \n"," max_pooling2d_72 (MaxPooli  (None, 90, 90, 32)        0         \n"," ng2D)                                                           \n","                                                                 \n"," conv2d_73 (Conv2D)          (None, 90, 90, 64)        18496     \n","                                                                 \n"," max_pooling2d_73 (MaxPooli  (None, 45, 45, 64)        0         \n"," ng2D)                                                           \n","                                                                 \n"," conv2d_74 (Conv2D)          (None, 45, 45, 64)        36928     \n","                                                                 \n"," dropout_48 (Dropout)        (None, 45, 45, 64)        0         \n","                                                                 \n"," batch_normalization_61 (Ba  (None, 45, 45, 64)        256       \n"," tchNormalization)                                               \n","                                                                 \n"," max_pooling2d_74 (MaxPooli  (None, 23, 23, 64)        0         \n"," ng2D)                                                           \n","                                                                 \n"," conv2d_75 (Conv2D)          (None, 23, 23, 64)        36928     \n","                                                                 \n"," batch_normalization_62 (Ba  (None, 23, 23, 64)        256       \n"," tchNormalization)                                               \n","                                                                 \n"," max_pooling2d_75 (MaxPooli  (None, 12, 12, 64)        0         \n"," ng2D)                                                           \n","                                                                 \n"," conv2d_76 (Conv2D)          (None, 12, 12, 128)       73856     \n","                                                                 \n"," dropout_49 (Dropout)        (None, 12, 12, 128)       0         \n","                                                                 \n"," batch_normalization_63 (Ba  (None, 12, 12, 128)       512       \n"," tchNormalization)                                               \n","                                                                 \n"," max_pooling2d_76 (MaxPooli  (None, 6, 6, 128)         0         \n"," ng2D)                                                           \n","                                                                 \n"," conv2d_77 (Conv2D)          (None, 6, 6, 256)         295168    \n","                                                                 \n"," dropout_50 (Dropout)        (None, 6, 6, 256)         0         \n","                                                                 \n"," batch_normalization_64 (Ba  (None, 6, 6, 256)         1024      \n"," tchNormalization)                                               \n","                                                                 \n"," max_pooling2d_77 (MaxPooli  (None, 3, 3, 256)         0         \n"," ng2D)                                                           \n","                                                                 \n"," flatten_12 (Flatten)        (None, 2304)              0         \n","                                                                 \n"," dropout_51 (Dropout)        (None, 2304)              0         \n","                                                                 \n"," dense_12 (Dense)            (None, 1)                 2305      \n","                                                                 \n","=================================================================\n","Total params: 466177 (1.78 MB)\n","Trainable params: 465089 (1.77 MB)\n","Non-trainable params: 1088 (4.25 KB)\n","_________________________________________________________________\n","Epoch 1/20\n","176/176 [==============================] - 10s 49
…
ata","data":{"text/plain":["<Figure size 640x480 with 1 Axes>"],"image/png":"…\n"},"metadata":{}}],"source":["# Build the model\n","test_accs = []\n","test_loss_accs = []\n","epochs = [20]\n","learning_rates = [0.001]\n","\n","for lr in learning_rates:\n","  for epoch in epochs:\n","        print(f\"Training CNN with SGD: learning rate: {lr}, epochs: {epoch}\")\n","        CNN = models.Sequential()\n","\n","        CNN.add(layers.Conv2D(32, (3, 3), padding = 'same' ,activation='relu', input_shape=(180, 180, 1)))\n","        CNN.add(BatchNormalization())\n","        CNN.add(layers.MaxPooling2D((2,2) , strides = 2 , padding = 'same'))\n","        CNN.add(layers.Conv2D(64 , (3,3) , strides = 1 , padding = 'same' , activation = 'relu'))\n","\n","        CNN.add(layers.MaxPooling2D((2,2) , strides = 2 , padding = 'same'))\n","        CNN.add(layers.Conv2D(64 , (3,3) , strides = 1 , padding = 'same' , activation = 'relu'))\n","        CNN.add(Dropout(0.1))\n","        CNN.add(BatchNormalization())\n","\n","        CNN.add(layers.MaxPooling2D((2,2) , strides = 2 , padding = 'same'))\n","        CNN.add(layers.Conv2D(64 , (3,3) , strides = 1 , padding = 'same' , activation = 'relu'))\n","        CNN.add(BatchNormalization())\n","\n","        CNN.add(layers.MaxPooling2D((2,2) , strides = 2 , padding = 'same'))\n","        CNN.add(layers.Conv2D(128 , (3,3) , strides = 1 , padding = 'same' , activation = 'relu'))\n","        CNN.add(Dropout(0.2))\n","        CNN.add(BatchNormalization())\n","\n","        CNN.add(layers.MaxPooling2D((2,2) , strides = 2 , padding = 'same'))\n","        CNN.add(layers.Conv2D(256 , (3,3) , strides = 1 , padding = 'same' , activation = 'relu'))\n","        CNN.add(Dropout(0.2))\n","        CNN.add(BatchNormalization())\n","\n","        CNN.add(layers.MaxPooling2D((2,2) , strides = 2 , padding = 'same'))\n","\n","        CNN.add(layers.Flatten())\n","        CNN.add(Dropout(0.2))\n","        CNN.add(layers.Dense(1, activation = 'sigmoid'))\n","\n","        # Compile the model\n","        CNN.compile(optimizer = optimizers.SGD(learning_rate=lr),loss='binary_crossentropy', metrics=['accuracy'])\n","\n","        CNN.summary()\n","\n","        history = CNN.fit(train_
…
