…
6 - val_loss: 0.1714 - val_accuracy: 0.9360\n","Epoch 50/50\n","176/176 [==============================] - 2s 14ms/step - loss: 0.1462 - accuracy: 0.9433 - val_loss: 0.3450 - val_accuracy: 0.8737\n","Model: \"model\"\n","_________________________________________________________________\n"," Layer (type)                Output Shape              Param #   \n","=================================================================\n"," input_2 (InputLayer)        [(None, 180, 180, 3)]     0         \n","                                                                 \n"," tf.math.truediv (TFOpLambd  (None, 180, 180, 3)       0         \n"," a)                                                              \n","                                                                 \n"," tf.math.subtract (TFOpLamb  (None, 180, 180, 3)       0         \n"," da)                                                             \n","                                                                 \n"," mobilenetv2_1.00_224 (Func  (None, 6, 6, 1280)        2257984   \n"," tional)                                                         \n","                                                                 \n"," conv2d (Conv2D)             (None, 6, 6, 32)          368672    \n","                                                                 \n"," max_pooling2d (MaxPooling2  (None, 3, 3, 32)          0         \n"," D)                                                              \n","                                                                 \n"," conv2d_1 (Conv2D)           (None, 3, 3, 64)          18496     \n","                                                                 \n"," max_pooling2d_1 (MaxPoolin  (None, 1, 1, 64)          0         \n"," g2D)                                                            \n","                                                                 \n"," conv2d_2 (Conv2D)           (None, 1, 1, 128)         73856     \n","                                                                 \n"," global_average_pooling2d (  (None, 128)               0         \n"," GlobalAveragePooling2D)                                         \n","                                                                 \n"," dropout (Dropout)           (None, 128)               0         \n","                                                                 \n"," dense (Dense)               (None, 1)                 129       \n","                                                                 \n","=================================================================\n","Total params: 2719137 (10.37 MB)\n","Trainable params: 461153 (1.76 MB)\n","Non-trainable params: 2257984 (8.61 MB)\n","_________________________________________________________________\n"]},{"output_type":"display_data","data":{"text/plain":["<Fig
…
