…
e end of the best epoch: 31.\n","176/176 [==============================] - 3s 14ms/step - loss: 0.1900 - accuracy: 0.9277 - val_loss: 0.1529 - val_accuracy: 0.9420\n","Epoch 41: early stopping\n","Model: \"model_2\"\n","_________________________________________________________________\n"," Layer (type)                Output Shape              Param #   \n","=================================================================\n"," input_6 (InputLayer)        [(None, 180, 180, 3)]     0         \n","                                                                 \n"," tf.math.truediv_2 (TFOpLam  (None, 180, 180, 3)       0         \n"," bda)                                                            \n","                                                                 \n"," tf.math.subtract_2 (TFOpLa  (None, 180, 180, 3)       0         \n"," mbda)                                                           \n","                                                                 \n"," mobilenetv2_1.00_224 (Func  (None, 6, 6, 1280)        2257984   \n"," tional)                                                         \n","                                                                 \n"," conv2d_6 (Conv2D)           (None, 6, 6, 32)          368672    \n","                                                                 \n"," max_pooling2d_4 (MaxPoolin  (None, 3, 3, 32)          0         \n"," g2D)                                                            \n","                                                                 \n"," conv2d_7 (Conv2D)           (None, 3, 3, 64)          18496     \n","                                                                 \n"," max_pooling2d_5 (MaxPoolin  (None, 1, 1, 64)          0         \n"," g2D)                                                            \n","                                                                 \n"," conv2d_8 (Conv2D)           (None, 1, 1, 128)         73856     \n","                                                                 \n"," global_average_pooling2d_2  (None, 128)               0         \n","  (GlobalAveragePooling2D)                                       \n","                                                                 \n"," dropout_2 (Dropout)         (None, 128)               0         \n","                                                                 \n"," dense_2 (Dense)             (None, 1)                 129       \n","                                                                 \n","=================================================================\n","Total params: 2719137 (10.37 MB)\n","Trainable params: 461153 (1.76 MB)\n","Non-trainable params: 2257984 (8.61 MB)\n","_________________________________________________________________\n"]},{"output_type":"display_data","data":{"text/plain":["<Fig
…
