…
00},"executionInfo":{"status":"ok","timestamp":1712139264529,"user_tz":-180,"elapsed":1907296,"user":{"displayName":"יובל המר","userId":"00531576540532881377"}},"outputId":"61b2113f-cc46-4c41-ed06-ca3af0108c7a"},"outputs":[{"output_type":"stream","name":"stdout","text":["Training CNN with SGD: learning rate: 0.0005, epochs: 30\n","Model: \"sequential_1\"\n","_________________________________________________________________\n"," Layer (type)                Output Shape              Param #   \n","=================================================================\n"," conv2d_6 (Conv2D)           (None, 180, 180, 32)      320       \n","                                                                 \n"," batch_normalization_5 (Bat  (None, 180, 180, 32)      128       \n"," chNormalization)                                                \n","                                                                 \n"," max_pooling2d_6 (MaxPoolin  (None, 90, 90, 32)        0         \n"," g2D)                                                            \n","                                                                 \n"," conv2d_7 (Conv2D)           (None, 90, 90, 64)        18496     \n","                                                                 \n"," max_pooling2d_7 (MaxPoolin  (None, 45, 45, 64)        0         \n"," g2D)                                                            \n","                                                                 \n"," conv2d_8 (Conv2D)           (None, 45, 45, 64)        36928     \n","                                                                 \n"," dropout_4 (Dropout)         (None, 45, 45, 64)        0         \n","                                                                 \n"," batch_normalization_6 (Bat  (None, 45, 45, 64)        256       \n"," chNormalization)                                                \n","                                                                 \n"," max_pooling2d_8 (MaxPoolin  (None, 23, 23, 64)        0         \n"," g2D)                                                            \n","                                                                 \n"," conv2d_9 (Conv2D)           (None, 23, 23, 64)        36928     \n","                                                                 \n"," batch_normalization_7 (Bat  (None, 23, 23, 64)        256       \n"," chNormalization)                                                \n","                                                                 \n"," max_pooling2d_9 (MaxPoolin  (None, 12, 12, 64)        0         \n"," g2D)                                                            \n","                                                                 \n"," conv2d_10 (Conv2D)          (None, 12, 12, 128)       73856     \n","                                                                 \n"," dropout_5 (Dropout)         (None, 12, 12, 128)       0         \n","                                                                 \n"," batch_normalization_8 (Bat  (None, 12, 12, 128)       512       \n"," chNormalization)                                                \n","                                                                 \n"," max_pooling2d_10 (MaxPooli  (None, 6, 6, 128)         0         \n"," ng2D)                                                           \n","                                                                 \n"," conv2d_11 (Conv2D)          (None, 6, 6, 256)         295168    \n","                                                                 \n"," dropout_6 (Dropout)         (None, 6, 6, 256)         0         \n","                                                                 \n"," batch_normalization_9 (Bat  (None, 6, 6, 256)         1024      \n"," chNormalization)                                                \n","                                                                 \n"," max_pooling2d_11 (MaxPooli  (None, 3, 3, 256)         0         \n"," ng2D)                                                           \n","                                                                 \n"," flatten_1 (Flatten)         (None, 2304)              0         \n","                                                                 \n"," dense_1 (Dense)             (None, 3)                 6915      \n","                                                                 \n","=================================================================\n","Total params: 470787 (1.80 MB)\n","Trainable params: 469699 (1.79 MB)\n","Non-trainable params: 1088 (4.25 KB)\n","_________________________________________________________________\n","Epoch 1/30\n"]},{"output_type":"stream","name":"stderr","text":[
…
{"text/plain":["<Figure size 640x480 with 1 Axes>"],"image/png":"…\n"},"metadata":{}}],"source":["# Build the model\n","test_accs = []\n","test_loss_accs = []\n","epochs = [30,60]\n","learning_rates = [0.0005,0.00001]\n","\n","for lr in learning_rates:\n","  for epoch in epochs:\n","        print(f\"Training CNN with SGD: learning rate: {lr}, epochs: {epoch}\")\n","        CNN = models.Sequential()\n","\n","        CNN.add(layers.Conv2D(32, (3, 3), padding = 'same' ,activation='relu', input_shape=(180, 180, 1)))\n","        CNN.add(BatchNormalization())\n","        CNN.add(layers.MaxPooling2D((2,2) , strides = 2 , padding = 'same'))\n","        CNN.add(layers.Conv2D(64 , (3,3) , strides = 1 , padding = 'same' , activation = 'relu'))\n","\n","        CNN.add(layers.MaxPooling2D((2,2) , strides = 2 , padding = 'same'))\n","        CNN.add(layers.Conv2D(64 , (3,3) , strides = 1 , padding = 'same' , activation = 'relu'))\n","        CNN.add(Dropout(0.1))\n","        CNN.add(BatchNormalization())\n","\n","        CNN.add(layers.MaxPooling2D((2,2) , strides = 2 , padding = 'same'))\n","        CNN.add(layers.Conv2D(64 , (3,3) , strides = 1 , padding = 'same' , activation = 'relu'))\n","        CNN.add(BatchNormalization())\n","\n","        CNN.add(layers.MaxPooling2D((2,2) , strides = 2 , padding = 'same'))\n","        CNN.add(layers.Conv2D(128 , (3,3) , strides = 1 , padding = 'same' , activation = 'relu'))\n","        CNN.add(Dropout(0.2))\n","        CNN.add(BatchNormalization())\n","\n","        CNN.add(layers.MaxPooling2D((2,2) , strides = 2 , padding = 'same'))\n","        CNN.add(layers.Conv2D(256 , (3,3) , strides = 1 , padding = 'same' , activation = 'relu'))\n","        CNN.add(Dropout(0.2))\n","        CNN.add(BatchNormalization())\n","\n","        CNN.add(layers.MaxPooling2D((2,2) , strides = 2 , padding = 'same'))\n","\n","        CNN.add(layers.Flatten())\n","\n","        CNN.add(layers.Dense(3, activation='softmax'))\n","\n","        # Compile the model\n","        CNN.compile(optimizer = optimizers.SGD(learning_rate=lr,momentum = 0.9),\n","                    loss=tf.keras.losses.CategoricalCrossentropy(from_logits=True), metrics=['accuracy'])\n","\n","        CNN.summar
…
