…
00},"executionInfo":{"status":"error","timestamp":1712150703801,"user_tz":-180,"elapsed":2886,"user":{"displayName":"יובל המר","userId":"00531576540532881377"}},"outputId":"b384a509-9cc5-4b4d-b353-7a3123664b47"},"outputs":[{"output_type":"stream","name":"stdout","text":["Training CNN with SGD: learning rate: 0.0005, epochs: 60\n","Model: \"sequential_8\"\n","_________________________________________________________________\n"," Layer (type)                Output Shape              Param #   \n","=================================================================\n"," conv2d_48 (Conv2D)          (None, 180, 180, 32)      320       \n","                                                                 \n"," batch_normalization_40 (Ba  (None, 180, 180, 32)      128       \n"," tchNormalization)                                               \n","                                                                 \n"," max_pooling2d_48 (MaxPooli  (None, 90, 90, 32)        0         \n"," ng2D)                                                           \n","                                                                 \n"," conv2d_49 (Conv2D)          (None, 90, 90, 64)        18496     \n","                                                                 \n"," max_pooling2d_49 (MaxPooli  (None, 45, 45, 64)        0         \n"," ng2D)                                                           \n","                                                                 \n"," conv2d_50 (Conv2D)          (None, 45, 45, 64)        36928     \n","                                                                 \n"," dropout_24 (Dropout)        (None, 45, 45, 64)        0         \n","                                                                 \n"," batch_normalization_41 (Ba  (None, 45, 45, 64)        256       \n"," tchNormalization)                                               \n","                                                                 \n"," max_pooling2d_50 (MaxPooli  (None, 23, 23, 64)        0         \n"," ng2D)                                                           \n","                                                                 \n"," conv2d_51 (Conv2D)          (None, 23, 23, 64)        36928     \n","                                                                 \n"," batch_normalization_42 (Ba  (None, 23, 23, 64)        256       \n"," tchNormalization)                                               \n","                                                                 \n"," max_pooling2d_51 (MaxPooli  (None, 12, 12, 64)        0         \n"," ng2D)                                                           \n","                                                                 \n"," conv2d_52 (Conv2D)          (None, 12, 12, 128)       73856     \n","                                                                 \n"," dropout_25 (Dropout)        (None, 12, 12, 128)       0         \n","                                                                 \n"," batch_normalization_43 (Ba  (None, 12, 12, 128)       512       \n"," tchNormalization)                                               \n","                                                                 \n"," max_pooling2d_52 (MaxPooli  (None, 6, 6, 128)         0         \n"," ng2D)                                                           \n","                                                                 \n"," conv2d_53 (Conv2D)          (None, 6, 6, 256)         295168    \n","                                                                 \n"," dropout_26 (Dropout)        (None, 6, 6, 256)         0         \n","                                                                 \n"," batch_normalization_44 (Ba  (None, 6, 6, 256)         1024      \n"," tchNormalization)                                               \n","                                                                 \n"," max_pooling2d_53 (MaxPooli  (None, 3, 3, 256)         0         \n"," ng2D)                                                           \n","                                                                 \n"," flatten_8 (Flatten)         (None, 2304)              0         \n","                                                                 \n"," dense_8 (Dense)             (None, 3)                 6915      \n","                                                                 \n","=================================================================\n","Total params: 470787 (1.80 MB)\n","Trainable params: 469699 (1.79 MB)\n","Non-trainable params: 1088 (4.25 KB)\n","_________________________________________________________________\n"]},{"output_type":"error","ename":"KeyboardInterrupt","evalue":"",
…
m    105\u001b[0m \u001b[0;34m\u001b[0m\u001b[0m\n","\u001b[0;31mKeyboardInterrupt\u001b[0m: "]}],"source":["# Build the model\n","test_accs = []\n","test_loss_accs = []\n","epochs = [60]\n","learning_rates = [0.0005]\n","\n","for lr in learning_rates:\n","  for epoch in epochs:\n","        print(f\"Training CNN with SGD: learning rate: {lr}, epochs: {epoch}\")\n","        CNN = models.Sequential()\n","\n","        CNN.add(layers.Conv2D(32, (3, 3), padding = 'same' ,activation='relu', input_shape=(180, 180, 1)))\n","        CNN.add(BatchNormalization())\n","        CNN.add(layers.MaxPooling2D((2,2) , strides = 2 , padding = 'same'))\n","        CNN.add(layers.Conv2D(64 , (3,3) , strides = 1 , padding = 'same' , activation = 'relu'))\n","\n","        CNN.add(layers.MaxPooling2D((2,2) , strides = 2 , padding = 'same'))\n","        CNN.add(layers.Conv2D(64 , (3,3) , strides = 1 , padding = 'same' , activation = 'relu'))\n","        CNN.add(Dropout(0.1))\n","        CNN.add(BatchNormalization())\n","\n","        CNN.add(layers.MaxPooling2D((2,2) , strides = 2 , padding = 'same'))\n","        CNN.add(layers.Conv2D(64 , (3,3) , strides = 1 , padding = 'same' , activation = 'relu'))\n","        CNN.add(BatchNormalization())\n","\n","        CNN.add(layers.MaxPooling2D((2,2) , strides = 2 , padding = 'same'))\n","        CNN.add(layers.Conv2D(128 , (3,3) , strides = 1 , padding = 'same' , activation = 'relu'))\n","        CNN.add(Dropout(0.2))\n","        CNN.add(BatchNormalization())\n","\n","        CNN.add(layers.MaxPooling2D((2,2) , strides = 2 , padding = 'same'))\n","        CNN.add(layers.Conv2D(256 , (3,3) , strides = 1 , padding = 'same' , activation = 'relu'))\n","        CNN.add(Dropout(0.2))\n","        CNN.add(BatchNormalization())\n","\n","        CNN.add(layers.MaxPooling2D((2,2) , strides = 2 , padding = 'same'))\n","\n","        CNN.add(layers.Flatten())\n","\n","        CNN.add(layers.Dense(3, activation='softmax'))\n","\n","        # Compile the model\n","        CNN.compile(optimizer = optimizers.SGD(learning_rate=lr),\n","                    loss=tf.keras.losses.CategoricalCrossentropy(from_logits=True), metrics=['accuracy'])\n","\n","        CNN.summary()\n","       
…
