…
00},"executionInfo":{"status":"ok","timestamp":1711989739919,"user_tz":-180,"elapsed":88897,"user":{"displayName":"יובל המר","userId":"00531576540532881377"}},"outputId":"b5437524-05a3-47fe-c378-77b15c6f824d"},"outputs":[{"output_type":"stream","name":"stdout","text":["Training CNN with ADAM: learning rate: 0.0001, epochs: 20\n","Model: \"sequential_20\"\n","_________________________________________________________________\n"," Layer (type)                Output Shape              Param #   \n","=================================================================\n"," conv2d_118 (Conv2D)         (None, 180, 180, 32)      320       \n","                                                                 \n"," batch_normalization_98 (Ba  (None, 180, 180, 32)      128       \n"," tchNormalization)                                               \n","                                                                 \n"," max_pooling2d_118 (MaxPool  (None, 90, 90, 32)        0         \n"," ing2D)                                                          \n","                                                                 \n"," conv2d_119 (Conv2D)         (None, 90, 90, 64)        18496     \n","                                                                 \n"," max_pooling2d_119 (MaxPool  (None, 45, 45, 64)        0         \n"," ing2D)                                                          \n","                                                                 \n"," conv2d_120 (Conv2D)         (None, 45, 45, 64)        36928     \n","                                                                 \n"," dropout_60 (Dropout)        (None, 45, 45, 64)        0         \n","                                                                 \n"," batch_normalization_99 (Ba  (None, 45, 45, 64)        256       \n"," tchNormalization)                                               \n","                                                                 \n"," max_pooling2d_120 (MaxPool  (None, 23, 23, 64)        0         \n"," ing2D)                                                          \n","                                                                 \n"," conv2d_121 (Conv2D)         (None, 23, 23, 64)        36928     \n","                                                                 \n"," batch_normalization_100 (B  (None, 23, 23, 64)        256       \n"," atchNormalization)                                              \n","                                                                 \n"," max_pooling2d_121 (MaxPool  (None, 12, 12, 64)        0         \n"," ing2D)                                                          \n","                                                                 \n"," conv2d_122 (Conv2D)         (None, 12, 12, 128)       73856     \n","                                                                 \n"," dropout_61 (Dropout)        (None, 12, 12, 128)       0         \n","                                                                 \n"," batch_normalization_101 (B  (None, 12, 12, 128)       512       \n"," atchNormalization)                                              \n","                                                                 \n"," max_pooling2d_122 (MaxPool  (None, 6, 6, 128)         0         \n"," ing2D)                                                          \n","                                                                 \n"," conv2d_123 (Conv2D)         (None, 6, 6, 256)         295168    \n","                                                                 \n"," dropout_62 (Dropout)        (None, 6, 6, 256)         0         \n","                                                                 \n"," batch_normalization_102 (B  (None, 6, 6, 256)         1024      \n"," atchNormalization)                                              \n","                                                                 \n"," max_pooling2d_123 (MaxPool  (None, 3, 3, 256)         0         \n"," ing2D)                                                          \n","                                                                 \n"," flatten_20 (Flatten)        (None, 2304)              0         \n","                                                                 \n"," dense_20 (Dense)            (None, 3)                 6915      \n","                                                                 \n","=================================================================\n","Total params: 470787 (1.80 MB)\n","Trainable params: 469699 (1.79 MB)\n","Non-trainable params: 1088 (4.25 KB)\n","_________________________________________________________________\n","Epoch 1/20\n"]},{"output_type":"stream","name":"stderr","text":[
…
"text/plain":["<Figure size 640x480 with 1 Axes>"],"image/png":"…\n"},"metadata":{}}],"source":["# Build the model\n","test_accs = []\n","test_loss_accs = []\n","epochs = [30,60]\n","learning_rates = [0.0005,0.00001]\n","\n","for lr in learning_rates:\n","  for epoch in epochs:\n","        print(f\"Training CNN with Adam: learning rate: {lr}, epochs: {epoch}\")\n","        CNN = models.Sequential()\n","\n","        CNN.add(layers.Conv2D(32, (3, 3), padding = 'same' ,activation='relu', input_shape=(180, 180, 1)))\n","        CNN.add(BatchNormalization())\n","        CNN.add(layers.MaxPooling2D((2,2) , strides = 2 , padding = 'same'))\n","        CNN.add(layers.Conv2D(64 , (3,3) , strides = 1 , padding = 'same' , activation = 'relu'))\n","\n","        CNN.add(layers.MaxPooling2D((2,2) , strides = 2 , padding = 'same'))\n","        CNN.add(layers.Conv2D(64 , (3,3) , strides = 1 , padding = 'same' , activation = 'relu'))\n","        CNN.add(Dropout(0.1))\n","        CNN.add(BatchNormalization())\n","\n","        CNN.add(layers.MaxPooling2D((2,2) , strides = 2 , padding = 'same'))\n","        CNN.add(layers.Conv2D(64 , (3,3) , strides = 1 , padding = 'same' , activation = 'relu'))\n","        CNN.add(BatchNormalization())\n","\n","        CNN.add(layers.MaxPooling2D((2,2) , strides = 2 , padding = 'same'))\n","        CNN.add(layers.Conv2D(128 , (3,3) , strides = 1 , padding = 'same' , activation = 'relu'))\n","        CNN.add(Dropout(0.2))\n","        CNN.add(BatchNormalization())\n","\n","        CNN.add(layers.MaxPooling2D((2,2) , strides = 2 , padding = 'same'))\n","        CNN.add(layers.Conv2D(256 , (3,3) , strides = 1 , padding = 'same' , activation = 'relu'))\n","        CNN.add(Dropout(0.2))\n","        CNN.add(BatchNormalization())\n","\n","        CNN.add(layers.MaxPooling2D((2,2) , strides = 2 , padding = 'same'))\n","\n","        CNN.add(layers.Flatten())\n","\n","        CNN.add(layers.Dense(3, activation='softmax'))\n","\n","        # Compile the model\n","        CNN.compile(optimizer = optimizers.Adam(learning_rate=lr),\n","                    loss=tf.keras.losses.CategoricalCrossentropy(from_logits=True), metrics=['accuracy'])\n","\n","        CNN.summary()\n","\n"," 
…
