…
},"executionInfo":{"status":"ok","timestamp":1712142563557,"user_tz":-180,"elapsed":1539456,"user":{"displayName":"יובל המר","userId":"00531576540532881377"}},"outputId":"bbb870dc-3b1d-488c-9570-0c3911e90356"},"outputs":[{"output_type":"stream","name":"stdout","text":["Training CNN with RMSprop: learning rate: 0.0005, epochs: 30\n","Model: \"sequential\"\n","_________________________________________________________________\n"," Layer (type)                Output Shape              Param #   \n","=================================================================\n"," conv2d (Conv2D)             (None, 180, 180, 32)      320       \n","                                                                 \n"," batch_normalization (Batch  (None, 180, 180, 32)      128       \n"," Normalization)                                                  \n","                                                                 \n"," max_pooling2d (MaxPooling2  (None, 90, 90, 32)        0         \n"," D)                                                              \n","                                                                 \n"," conv2d_1 (Conv2D)           (None, 90, 90, 64)        18496     \n","                                                                 \n"," max_pooling2d_1 (MaxPoolin  (None, 45, 45, 64)        0         \n"," g2D)                                                            \n","                                                                 \n"," conv2d_2 (Conv2D)           (None, 45, 45, 64)        36928     \n","                                                                 \n"," dropout (Dropout)           (None, 45, 45, 64)        0         \n","                                                                 \n"," batch_normalization_1 (Bat  (None, 45, 45, 64)        256       \n"," chNormalization)                                                \n","                                                                 \n"," max_pooling2d_2 (MaxPoolin  (None, 23, 23, 64)        0         \n"," g2D)                                                            \n","                                                                 \n"," conv2d_3 (Conv2D)           (None, 23, 23, 64)        36928     \n","                                                                 \n"," batch_normalization_2 (Bat  (None, 23, 23, 64)        256       \n"," chNormalization)                                                \n","                                                                 \n"," max_pooling2d_3 (MaxPoolin  (None, 12, 12, 64)        0         \n"," g2D)                                                            \n","                                                                 \n"," conv2d_4 (Conv2D)           (None, 12, 12, 128)       73856     \n","                                                                 \n"," dropout_1 (Dropout)         (None, 12, 12, 128)       0         \n","                                                                 \n"," batch_normalization_3 (Bat  (None, 12, 12, 128)       512       \n"," chNormalization)                                                \n","                                                                 \n"," max_pooling2d_4 (MaxPoolin  (None, 6, 6, 128)         0         \n"," g2D)                                                            \n","                                                                 \n"," conv2d_5 (Conv2D)           (None, 6, 6, 256)         295168    \n","                                                                 \n"," dropout_2 (Dropout)         (None, 6, 6, 256)         0         \n","                                                                 \n"," batch_normalization_4 (Bat  (None, 6, 6, 256)         1024      \n"," chNormalization)                                                \n","                                                                 \n"," max_pooling2d_5 (MaxPoolin  (None, 3, 3, 256)         0         \n"," g2D)                                                            \n","                                                                 \n"," flatten (Flatten)           (None, 2304)              0         \n","                                                                 \n"," dense (Dense)               (None, 3)                 6915      \n","                                                                 \n","=================================================================\n","Total params: 470787 (1.80 MB)\n","Trainable params: 469699 (1.79 MB)\n","Non-trainable params: 1088 (4.25 KB)\n","_________________________________________________________________\n","Epoch 1/30\n"]},{"output_type":"stream","name":"stderr","text":[
…
xt/plain":["<Figure size 640x480 with 1 Axes>"],"image/png":"…\n"},"metadata":{}}],"source":["# Build the model\n","test_accs = []\n","test_loss_accs = []\n","epochs = [30,60]\n","learning_rates = [0.0005,0.00001]\n","\n","for lr in learning_rates:\n","  for epoch in epochs:\n","        print(f\"Training CNN with RMSprop: learning rate: {lr}, epochs: {epoch}\")\n","        CNN = models.Sequential()\n","\n","        CNN.add(layers.Conv2D(32, (3, 3), padding = 'same' ,activation='relu', input_shape=(180, 180, 1)))\n","        CNN.add(BatchNormalization())\n","        CNN.add(layers.MaxPooling2D((2,2) , strides = 2 , padding = 'same'))\n","        CNN.add(layers.Conv2D(64 , (3,3) , strides = 1 , padding = 'same' , activation = 'relu'))\n","\n","        CNN.add(layers.MaxPooling2D((2,2) , strides = 2 , padding = 'same'))\n","        CNN.add(layers.Conv2D(64 , (3,3) , strides = 1 , padding = 'same' , activation = 'relu'))\n","        CNN.add(Dropout(0.1))\n","        CNN.add(BatchNormalization())\n","\n","        CNN.add(layers.MaxPooling2D((2,2) , strides = 2 , padding = 'same'))\n","        CNN.add(layers.Conv2D(64 , (3,3) , strides = 1 , padding = 'same' , activation = 'relu'))\n","        CNN.add(BatchNormalization())\n","\n","        CNN.add(layers.MaxPooling2D((2,2) , strides = 2 , padding = 'same'))\n","        CNN.add(layers.Conv2D(128 , (3,3) , strides = 1 , padding = 'same' , activation = 'relu'))\n","        CNN.add(Dropout(0.2))\n","        CNN.add(BatchNormalization())\n","\n","        CNN.add(layers.MaxPooling2D((2,2) , strides = 2 , padding = 'same'))\n","        CNN.add(layers.Conv2D(256 , (3,3) , strides = 1 , padding = 'same' , activation = 'relu'))\n","        CNN.add(Dropout(0.2))\n","        CNN.add(BatchNormalization())\n","\n","        CNN.add(layers.MaxPooling2D((2,2) , strides = 2 , padding = 'same'))\n","\n","        CNN.add(layers.Flatten())\n","\n","        CNN.add(layers.Dense(3, activation='softmax'))\n","\n","        # Compile the model\n","        CNN.compile(optimizer = optimizers.RMSprop(learning_rate=lr),\n","                    loss=tf.keras.losses.CategoricalCrossentropy(from_logits=True), metrics=['accuracy'])\n","\n","        CNN.summary()\n","\n"
…
