…
:{"id":"DhD1m9fed6Yp","colab":{"base_uri":"https://localhost:8080/"},"executionInfo":{"status":"ok","timestamp":1712214868386,"user_tz":-180,"elapsed":86579,"user":{"displayName":"יובל המר","userId":"00531576540532881377"}},"outputId":"572a2370-d1b8-4c8a-e59f-3f1c838e6858"},"outputs":[{"output_type":"stream","name":"stdout","text":["Model: \"sequential\"\n","_________________________________________________________________\n"," Layer (type)                Output Shape              Param #   \n","=================================================================\n"," conv2d (Conv2D)             (None, 180, 180, 32)      320       \n","                                                                 \n"," max_pooling2d (MaxPooling2  (None, 90, 90, 32)        0         \n"," D)                                                              \n","                                                                 \n"," conv2d_1 (Conv2D)           (None, 90, 90, 64)        18496     \n","                                                                 \n"," max_pooling2d_1 (MaxPoolin  (None, 45, 45, 64)        0         \n"," g2D)                                                            \n","                                                                 \n"," conv2d_2 (Conv2D)           (None, 45, 45, 64)        36928     \n","                                                                 \n"," dropout (Dropout)           (None, 45, 45, 64)        0         \n","                                                                 \n"," max_pooling2d_2 (MaxPoolin  (None, 23, 23, 64)        0         \n"," g2D)                                                            \n","                                                                 \n"," conv2d_3 (Conv2D)           (None, 23, 23, 64)        36928     \n","                                                                 \n"," max_pooling2d_3 (MaxPoolin  (None, 12, 12, 64)        0         \n"," g2D)                                                            \n","                                                                 \n"," conv2d_4 (Conv2D)           (None, 12, 12, 128)       73856     \n","                                                                 \n"," dropout_1 (Dropout)         (None, 12, 12, 128)       0         \n","                                                                 \n"," max_pooling2d_4 (MaxPoolin  (None, 6, 6, 128)         0         \n"," g2D)                                                            \n","                                                                 \n"," conv2d_5 (Conv2D)           (None, 6, 6, 256)         295168    \n","                                                                 \n"," dropout_2 (Dropout)         (None, 6, 6, 256)         0         \n","                                                                 \n"," max_pooling2d_5 (MaxPoolin  (None, 3, 3, 256)         0         \n"," g2D)                                                            \n","                                                                 \n"," flatten (Flatten)           (None, 2304)              0         \n","                                                                 \n"," dropout_3 (Dropout)         (None, 2304)              0         \n","                                                                 \n"," dense (Dense)               (None, 1)                 2305      \n","                                                                 \n","=================================================================\n","Total params: 464001 (1.77 MB)\n","Trainable params: 464001 (1.77 MB)\n","Non-trainable params: 0 (0.00 Byte)\n","_________________________________________________________________\n","Epoch 1/10\n","176/176 [==============================] - 16s 44m
…
 - 6s 34ms/step - loss: 0.1584 - accuracy: 0.9391 - val_loss: 0.2005 - val_accuracy: 0.9377\n","Epoch 9/10\n","176/176 [==============================] - 6s 36ms/step - loss: 0.1498 - accuracy: 0.9428 - val_loss: 0.1581 - val_accuracy: 0.9573\n","Epoch 10/10\n","176/176 [==============================] - 6s 35ms/step - loss: 0.1494 - accuracy: 0.9408 - val_loss: 0.1481 - val_accuracy: 0.9582\n"]}],"source":["# Build the model\n","CNN = models.Sequential()\n","\n","CNN.add(layers.Conv2D(32, (3, 3), padding = 'same' ,activation='relu', input_shape=(180, 180, 1)))\n","CNN.add(layers.MaxPooling2D((2,2) , strides = 2 , padding = 'same'))\n","CNN.add(layers.Conv2D(64 , (3,3) , strides = 1 , padding = 'same' , activation = 'relu'))\n","\n","CNN.add(layers.MaxPooling2D((2,2) , strides = 2 , padding = 'same'))\n","CNN.add(layers.Conv2D(64 , (3,3) , strides = 1 , padding = 'same' , activation = 'relu'))\n","CNN.add(Dropout(0.1))\n","\n","CNN.add(layers.MaxPooling2D((2,2) , strides = 2 , padding = 'same'))\n","CNN.add(layers.Conv2D(64 , (3,3) , strides = 1 , padding = 'same' , activation = 'relu'))\n","\n","CNN.add(layers.MaxPooling2D((2,2) , strides = 2 , padding = 'same'))\n","CNN.add(layers.Conv2D(128 , (3,3) , strides = 1 , padding = 'same' , activation = 'relu'))\n","CNN.add(Dropout(0.2))\n","\n","CNN.add(layers.MaxPooling2D((2,2) , strides = 2 , padding = 'same'))\n","CNN.add(layers.Conv2D(256 , (3,3) , strides = 1 , padding = 'same' , activation = 'relu'))\n","CNN.add(Dropout(0.2))\n","\n","CNN.add(layers.MaxPooling2D((2,2) , strides = 2 , padding = 'same'))\n","\n","CNN.add(layers.Flatten())\n","CNN.add(Dropout(0.2))\n","CNN.add(layers.Dense(1, activation = 'sigmoid'))\n","\n","# Compile the model\n","CNN.compile(optimizer = Adagrad(learning_rate=0.01),\n","            loss='binary_crossentropy',\n","            metrics=['accuracy'])\n","\n","CNN.summary()\n","\n","history = CNN.fit(train_norm, train_label, epochs = 
…
