…
 val_loss: 0.1902 - val_accuracy: 0.9164\n","Epoch 50/50\n","176/176 [==============================] - 3s 14ms/step - loss: 0.1788 - accuracy: 0.9268 - val_loss: 0.1907 - val_accuracy: 0.9283\n","Model: \"model_10\"\n","_________________________________________________________________\n"," Layer (type)                Output Shape              Param #   \n","=================================================================\n"," input_28 (InputLayer)       [(None, 180, 180, 3)]     0         \n","                                                                 \n"," tf.math.truediv_13 (TFOpLa  (None, 180, 180, 3)       0         \n"," mbda)                                                           \n","                                                                 \n"," tf.math.subtract_13 (TFOpL  (None, 180, 180, 3)       0         \n"," ambda)                                                          \n","                                                                 \n"," mobilenetv2_1.00_224 (Func  (None, 6, 6, 1280)        2257984   \n"," tional)                                                         \n","                                                                 \n"," conv2d_23 (Conv2D)          (None, 6, 6, 32)          368672    \n","                                                                 \n"," max_pooling2d_17 (MaxPooli  (None, 3, 3, 32)          0         \n"," ng2D)                                                           \n","                                                                 \n"," conv2d_24 (Conv2D)          (None, 3, 3, 64)          18496     \n","                                                                 \n"," max_pooling2d_18 (MaxPooli  (None, 1, 1, 64)          0         \n"," ng2D)                                                           \n","                                                                 \n"," conv2d_25 (Conv2D)          (None, 1, 1, 128)         73856     \n","                                                                 \n"," global_average_pooling2d_1  (None, 128)               0         \n"," 3 (GlobalAveragePooling2D)                                      \n","                                                                 \n"," dropout_10 (Dropout)        (None, 128)               0         \n","                                                                 \n"," dense_13 (Dense)            (None, 1)                 129       \n","                                                                 \n","=================================================================\n","Total params: 2719137 (10.37 MB)\n","Trainable params: 461153 (1.76 MB)\n","Non-trainable params: 2257984 (8.61 MB)\n","_________________________________________________________________\n"]},{"output_type":"display_data","data":{"text/plain":["<Fig
…
